model/vijay2_small_model_distill.pth (torch, 51752 bytes, 3 tensors)

fc1.weight f4 [32, 384]
0	0xbd02c3c1	-0.031924967
1	0x3d42900f	0.047500666
2	0xbca31504	-0.019907482
3	0x3b988b81	0.004655302
4	0x3bad5060	0.0052891225
5	0xbd438b29	-0.047740135
6	0xbd068d34	-0.032849506
7	0xbce6d89f	-0.028179465
8	0xbd16de0f	-0.036832865
9	0xba08361f	-0.0005196053
10	0x3ca06ae3	0.019582218
11	0x38d0bbc2	9.9531855e-05
12	0xbc5f52d3	-0.013630587
13	0xbb1f5914	-0.002431457
14	0xbd42a074	-0.0475163
15	0x3d1768b3	0.036965083
16	0x3d0a4a17	0.033762064
17	0x3c676633	0.014123487
18	0x3c7bd561	0.015370698
19	0x3d510449	0.051029477
20	0x3a928408	0.0011178264
21	0x3cef9e8f	0.029250411
22	0xbd22e8ec	-0.039772913
23	0xb9175b0e	-0.00014434403
24	0x3b56e8e8	0.0032792632
25	0x3c6abd33	0.014327335
26	0xbccd3484	-0.025049455
27	0xbd01f84a	-0.031730928
28	0xbc55d8c4	-0.013052169
29	0x3b70eb31	0.0036761279
30	0xbd2e7375	-0.042590577
31	0xbc003564	-0.007825229
32	0xbd84fea4	-0.06493881
33	0x3d1fb8de	0.038994662
34	0xbcdae350	-0.02671972
35	0x3b5cc174	0.0033684643
36	0x3923a0c5	0.00015604783
37	0xbd1a8bb1	-0.037730876
38	0x3d2417d5	0.04006179
39	0xbc3ce72f	-0.011529728
40	0x3ca91dc7	0.020644082
41	0x3ca28b19	0.019841718
42	0xbd3eac33	-0.04655094
43	0x3d174ff2	0.036941476
44	0xbd33db1d	-0.043910135
45	0x3c11cb8f	0.00889863
46	0xbdbdd7d6	-0.09269683
47	0xbd9cf5b5	-0.076640524
48	0xbd4a8550	-0.049443543
49	0x3ca4e172	0.020127032
50	0xbd0a4ac4	-0.03376271
51	0x3d5a5544	0.053303972
52	0x3ccfb8c8	0.025356665
53	0x3b52efef	0.0032186469
54	0xbd2ffc0d	-0.042964984
55	0xbcc78b1b	-0.024358323
56	0x3d17a36f	0.037021097
57	0x3d1efe60	0.03881681
58	0x3d4bae5f	0.04972684
59	0xbc80ccda	-0.01572268
60	0xbd365a17	-0.04451951
61	0x3b6d4039	0.003620161
62	0x3b57db2a	0.0032937028
63	0x3beed620	0.0072887093
64	0x3d49cacd	0.04926567
65	0x3b44e4c5	0.0030043584
66	0x3c2f154e	0.010686232
67	0x3caf0ffb	0.021369925
68	0x3d23ed23	0.040021073
69	0xbd88c192	-0.066775456
70	0x3ddb64bb	0.10712572
71	0x3dd1a22b	0.10236009
72	0x3e09eb0f	0.13468574
73	0x3da3f241	0.08005191
74	0x3d04b183	0.03239585
75	0x3db9a1c7	0.0906406
76	0x3d8e6d8d	0.06954489
77	0x3d55f933	0.052239608
78	0xbce0d104	-0.027443416
79	0x3de2e966	0.110796735
80	0x3d8b8e69	0.06814272
81	0x3ddb6de5	0.1071432
82	0x3d5d82bb	0.054079752
83	0x3d9a735a	0.07541533
84	0xbd346e49	-0.04405049
85	0x3d8c2078	0.068421304
86	0x3d17149d	0.036884893
87	0x3e37fbf7	0.1796721
88	0x3d2a778b	0.04161791
89	0x3dfa00f3	0.12207212
90	0x3cff6394	0.031175412
91	0x3dd1c10e	0.102419004
92	0x3d971585	0.073771514
93	0x3d15e88c	0.036598727
94	0x3e16d91a	0.14731255
95	0x3de7adbc	0.11312434
96	0x3d2b9514	0.04189022
97	0x3e338a34	0.17533189
98	0x3c5dfb62	0.013548704
99	0x3e035c44	0.12828165
100	0x3c2d099c	0.010561373
101	0x3d813a36	0.06309931
102	0x3d06d0d8	0.032914013
103	0x3dcdd09a	0.10049553
104	0x3e2b42d1	0.16724707
105	0x3df7b0b4	0.1209425
106	0x3dd0bad2	0.10191883
107	0x3da0f78d	0.078597166
108	0x3e014da3	0.12627272
109	0x3dab2a66	0.08357696
110	0x3de1659a	0.11005707
111	0xbc17e769	-0.009271481
112	0x3e2173b0	0.15766788
113	0x3d1c3080	0.03813219
114	0x3d5f4fff	0.05451965
115	0x3d6a0c08	0.05714038
116	0x3dc0ef4c	0.09420642
117	0x3e584e91	0.2112372
118	0x3d89a781	0.06721402
119	0x3d6340a9	0.055481587
120	0x3d4592bb	0.048235636
121	0x3db32a41	0.08748294
122	0x3ad8bbf3	0.0016535505
123	0xbcc7ae52	-0.024375115
124	0x3ddd6cd4	0.10811773
125	0x3cedfa76	0.029050093
126	0x3d75e779	0.060035203
127	0xbd18e1e0	-0.037324786
128	0x3d7efa74	0.06225057
129	0xbe490fff	-0.19635008
130	0x3c897594	0.016779698
131	0x3d192b23	0.037394654
132	0xbc4b0eff	-0.012393712
133	0xbd3d121e	-0.046159856
134	0xbe5629ee	-0.20914432
135	0x3d02eca0	0.031963944
136	0x3d4ff36e	0.050769262
137	0x3dd231ce	0.10263406
138	0x3ccb822d	0.024842346
139	0xbd7a4922	-0.0611049
140	0xbdf906eb	-0.121595226
141	0x3d18a34e	0.037265114
142	0xbd842708	-0.06452757
143	0x3a186324	0.0005813113
144	0xbe00e9b5	-0.12589152
145	0x3c7e40cc	0.0155183785
146	0xbe017eae	-0.1264598
147	0xbc0d4818	-0.0086231455
148	0x3d51a1a2	0.051179536
149	0xbde4c1c0	-0.111697674
150	0x3ce10913	0.027470147
151	0xbe3a0957	-0.18167625
152	0xbd3a0db4	-0.045423225
153	0x3d266087	0.0406194
154	0xbd9fcb21	-0.07802416
155	0x3c9fd51c	0.019510798
156	0x3b81be77	0.0039594728
157	0x3af249e7	0.0018485159
158	0x3ddf51ac	0.109042495
159	0x3d156e7c	0.03648232
160	0x3d6eeeb1	0.058333103
161	0xbc1edfee	-0.009696944
162	0x3da486fd	0.080335595
163	0xbd7f468d	-0.06232314
164	0x3d987330	0.07443845
165	0x3dd7d7fb	0.10539242
166	0xbd042d29	-0.03226963
167	0xbb9e3ecd	-0.004829264
168	0x3cad5abd	0.021161431
169	0xb9bdff37	-0.0003623904
170	0x3cc56020	0.024093688
171	0x3d036905	0.032082576
172	0x3e12fbe7	0.14353906
173	0xbc7d0626	-0.01544336
174	0x3d0ca37d	0.034335602
175	0xbcd51dd4	-0.0260152
176	0x3bfa5892	0.007639953
177	0x3d9309b4	0.07179585
178	0x3ba13a4c	0.0049202796
179	0x3d02c042	0.031921633
180	0x3d05a451	0.032627407
181	0x3d2c09cd	0.042001534
182	0xbcf9371c	-0.030421786
183	0x3dc215a8	0.09476787
184	0xbcc4b730	-0.024013132
185	0x3d8b5b3d	0.06804512
186	0x3c4806dc	0.012208667
187	0x3d39425f	0.045229312
188	0x3daa16fa	0.08305164
189	0xbbf3a59f	-0.007435515
190	0x3cbec54e	0.023287442
191	0xbdc40f99	-0.095732875
192	0x3c833d03	0.016020304
193	0x3d884297	0.06653326
194	0x3cd47163	0.025932973
195	0x3c973244	0.018456586
196	0x3d623210	0.055223525
197	0xbc9373c7	-0.017999543
198	0x3d937c9b	0.07201501
199	0x3d74da33	0.059778403
200	0x3dc41bfb	0.09575649
201	0x3d47b244	0.04875399
202	0x3c894128	0.016754702
203	0x3d49db17	0.049281206
204	0x3d59e89e	0.053200357
205	0x3ddd187e	0.10795687
206	0xbd09f799	-0.033683393
207	0xbafa413b	-0.0019092927
208	0x3d8e05e4	0.06934717
209	0x3db2871d	0.08717177
210	0xbd857848	-0.065170825
211	0x3cb50ad3	0.022099888
212	0x3d7d0ba0	0.061778665
213	0x3d4d5c5a	0.0501369
214	0x3d42d2fd	0.047564495
215	0x3dd13ed8	0.102170646
216	0x3e1810d6	0.14850172
217	0x3d261d61	0.04055536
218	0x3df71456	0.12064426
219	0x3d0481c1	0.032350305
220	0x3d48c6f3	0.049017858
221	0x3d68f6cc	0.05687599
222	0xbc3c8fed	-0.011508924
223	0x3c8a4a91	0.01688126
224	0x3cd550da	0.02603953
225	0x3da4827b	0.080327
226	0x3dab9210	0.083774686
227	0x3d547f87	0.051879432
228	0xbb9577bf	-0.004561394
229	0x3d17f6d9	0.037100647
230	0x3cdb5e4c	0.026778363
231	0x3ca53d4c	0.02017083
232	0x3c6b2844	0.014352862
233	0x3d657759	0.056022022
234	0x3e388ab0	0.18021655
235	0x3c5014de	0.012700288
236	0x3e0cbdc9	0.13744272
237	0x3ca9dcea	0.020735223
238	0x3cad3a51	0.021145971
239	0x3bdd1cda	0.006747824
240	0xbce64f0a	-0.02811386
241	0x3cede68f	0.029040603
242	0x3d115b44	0.03548743
243	0x3d70713c	0.05870174
244	0x3d16a9a0	0.03678286
245	0xbd89e650	-0.06733382
246	0x3d5c749c	0.053822145
247	0x3d8e0616	0.069347546
248	0xbcbd4dfa	-0.023108471
249	0x3d97df17	0.07415598
250	0x3cf95f5c	0.030440979
251	0x3d2cad45	0.04215743
252	0xbc68ef72	-0.014217244
253	0xbb87586f	-0.004130415
254	0x3d86f371	0.065894015
255	0xbd87b492	-0.06626238

fc1.bias f4 [32]
0	0xbdb614e4	-0.08890703
1	0xbe393516	-0.18086657
2	0xbdd0b7f0	-0.10191333
3	0x3ed58733	0.4170471
4	0x3dbba44d	0.09162197
5	0x3ba766e9	0.0051087034
6	0xbdc81462	-0.09769513
7	0x3df22270	0.11822975
8	0x3ee5d0e5	0.44885936
9	0x3d63ba9a	0.05559788
10	0xbd606c65	-0.054790873
11	0xbe66f682	-0.22554973
12	0xbe388477	-0.18019281
13	0xbe57c638	-0.21071708
14	0xbe220a30	-0.15824199
15	0xbca752e2	-0.020425264
16	0xbe026ec5	-0.12737568
17	0x3c17c6b7	0.009263686
18	0xbdcd87b4	-0.10035649
19	0x3e8dd81e	0.27703947
20	0xbd2ee24e	-0.04269629
21	0x3b64a9dc	0.0034891283
22	0xbd916499	-0.070992656
23	0xbe698e1d	-0.22808118
24	0xbe5d66bf	-0.21621226
25	0xbd8afeb3	-0.06786861
26	0xbca6e761	-0.020374002
27	0xbd99ea84	-0.075154334
28	0x3e2d67a0	0.16934061
29	0xbe381a8f	-0.17978881
30	0x3e21b592	0.1579192
31	0xbe61c94e	-0.22049448

fc2.weight f4 [1, 32]
0	0xbe958454	-0.2920252
1	0xbf3649e7	-0.71206516
2	0x3ea9c40d	0.33157387
3	0x3d8c5fe9	0.06854231
4	0x3e3143e6	0.17311057
5	0x3ea68e49	0.3253043
6	0xbe63a04e	-0.2222912
7	0x3e3cbe9d	0.18432088
8	0x3db36b00	0.08760643
9	0x3e72a320	0.2369504
10	0xbeedfef2	-0.4648357
11	0xbeedea5b	-0.46467862
12	0xbefcdb89	-0.49386242
13	0xbf5cbccf	-0.862256
14	0xbf16ec4e	-0.5895432
15	0xbe81817e	-0.25294107
16	0x3ecf4781	0.4048424
17	0xbed8cb5d	-0.42342654
18	0x3ecf23a1	0.4045687
19	0x3dbb5633	0.091473006
20	0xbeb5f99e	-0.35542005
21	0xbeab6f91	-0.33483556
22	0x3ed03e85	0.406727
23	0xbf00c27c	-0.5029676
24	0xbee2abd7	-0.44271728
25	0xbe45aa2d	-0.19303198
26	0xbec27752	-0.3798166
27	0x3ec45433	0.3834549
28	0x3e102334	0.14075929
29	0xbf12d4d4	-0.57356
30	0x3e8d68b8	0.27618957
31	0xbf0925a5	-0.53573066
