model/vijay2a_MAE_small_model.pth (torch, 51728 bytes, 3 tensors)

fc1.weight f4 [32, 384]
0	0xbd02c3c1	-0.031924967
1	0x3d42900f	0.047500666
2	0xbca31504	-0.019907482
3	0x3b988b81	0.004655302
4	0x3bad5060	0.0052891225
5	0xbd438b29	-0.047740135
6	0xbd068d34	-0.032849506
7	0xbce6d89f	-0.028179465
8	0xbca5fd5d	-0.020262415
9	0x3cd9e476	0.026598196
10	0xbb8cdba0	-0.0042986423
11	0x3be64ae2	0.0070279697
12	0x3ccb6942	0.024830464
13	0x3bba8a03	0.005692722
14	0xbd0feca0	-0.035137773
15	0x3ca7a1ad	0.020462835
16	0xbc76807d	-0.015045282
17	0x3b5c7a12	0.0033642096
18	0xbb8bca40	-0.0042660534
19	0x3c57cf0e	0.013171924
20	0xbac99f14	-0.0015382492
21	0x3b8a0e81	0.004213155
22	0x3a1935f3	0.0005844526
23	0x3c4d8b4a	0.012545416
24	0xbb740075	-0.0037231718
25	0x3d112f30	0.035445392
26	0xbc2e7a45	-0.0106492685
27	0xbca7cd58	-0.020483658
28	0x3babbf2b	0.005241295
29	0x3c177303	0.0092437295
30	0xbc8ecbb3	-0.017431116
31	0xbb6715f7	-0.0035260895
32	0xba40ba07	-0.0007351939
33	0x3d0ea477	0.034824815
34	0x3ca0fd10	0.01965192
35	0x3ba6afd9	0.0050868806
36	0x3b7b8452	0.003837843
37	0xba32bb43	-0.00068180653
38	0xbcd2ef37	-0.025748832
39	0xbc58cb1c	-0.013232019
40	0xbbffb831	-0.0078039397
41	0x3d3735d3	0.044729065
42	0xbca35a41	-0.019940497
43	0x3c203bbc	0.009779867
44	0xbd1598ce	-0.03652268
45	0xbcc9143a	-0.024545778
46	0xbd8b130f	-0.067907445
47	0xbc27be1e	-0.010238199
48	0x3aea563e	0.0017878485
49	0x3d63b106	0.055588745
50	0xbd1181e2	-0.035524257
51	0xbc0dd551	-0.008656816
52	0xbceaa6bb	-0.028643956
53	0xbc77ac58	-0.015116774
54	0xbd635b40	-0.055506945
55	0xbd193acd	-0.037409592
56	0x3d17a36f	0.037021097
57	0x3d1efe60	0.03881681
58	0x3d4bae5f	0.04972684
59	0xbc80ccda	-0.01572268
60	0xbd365a17	-0.04451951
61	0x3b6d4039	0.003620161
62	0x3b57db2a	0.0032937028
63	0x3beed620	0.0072887093
64	0x3da223e3	0.07917001
65	0x3db0971a	0.0862257
66	0x3dabf92e	0.08397137
67	0x3d74eaa8	0.0597941
68	0x3d94c2f6	0.07263748
69	0x3d285703	0.041098606
70	0x3dc57f16	0.0964338
71	0x3d66804b	0.056274693
72	0x3dcdd284	0.10049918
73	0x3db0d232	0.086338416
74	0x3de85bf4	0.11345664
75	0x3de59df3	0.11211767
76	0x3dbea9a0	0.09309697
77	0x3df80ea5	0.12112168
78	0x3dcd4e5e	0.10024713
79	0x3db7c022	0.08972193
80	0x3de19d3c	0.11016318
81	0x3ded276f	0.11579787
82	0x3de73546	0.11289458
83	0x3dce6fe0	0.10079932
84	0x3da6b9db	0.08140918
85	0x3dc8afc4	0.0979915
86	0x3db4de8c	0.0883151
87	0x3dba98f4	0.09111205
88	0x3de36e28	0.11104995
89	0x3ddb158a	0.106974676
90	0x3ddca02d	0.107727386
91	0x3dbbfb5d	0.09178803
92	0x3ddfc684	0.10926536
93	0x3dbcc30f	0.09216892
94	0x3df736ff	0.120710365
95	0x3df5d2ce	0.120030984
96	0x3df427a0	0.1192162
97	0x3dfaa616	0.1223871
98	0x3dbfdf09	0.093687125
99	0x3dad6744	0.08466962
100	0x3dcb13ed	0.0991591
101	0x3dd271a9	0.10275585
102	0x3d6ef146	0.058335565
103	0x3db7982c	0.08964571
104	0x3dfe38b9	0.12413163
105	0x3dc6a8dd	0.09700177
106	0x3db8f8cf	0.090318315
107	0x3dbf051a	0.09327145
108	0x3db9978e	0.0906211
109	0x3d89b1b1	0.06723345
110	0x3dbfab5b	0.09358855
111	0x3d80d7b6	0.062911436
112	0x3e359c98	0.17735517
113	0x3dea2edb	0.11434718
114	0x3ddd8687	0.10816675
115	0x3d9724a4	0.073800355
116	0x3dd47036	0.10372965
117	0x3db2b09f	0.08725094
118	0x3dce30aa	0.10067876
119	0x3da16d4e	0.07882176
120	0x3d18a36a	0.03726522
121	0x3dd2b3b1	0.1028818
122	0x3dd14a82	0.10219289
123	0x3cacacb7	0.02107845
124	0x3d6d2193	0.057893347
125	0x3bbba8f1	0.0057269265
126	0x3d2c5e21	0.042081956
127	0xbc8ac66f	-0.016940324
128	0xbbb4ff27	-0.0055235806
129	0x3ca5db90	0.020246297
130	0x3ccdcd83	0.02512241
131	0x3d539253	0.051653218
132	0x3c837676	0.016047698
133	0x3d84e6d5	0.0648934
134	0xbcfe307d	-0.03102898
135	0x3d567145	0.052354116
136	0x3d1352e6	0.03596773
137	0x3cef635f	0.029222189
138	0x3d495666	0.04915466
139	0x3d3808d4	0.044930294
140	0x3c803370	0.015649527
141	0x3d76c8db	0.060250144
142	0x3cd1d24a	0.025612969
143	0x3c8a2506	0.016863357
144	0x3d19804c	0.03747587
145	0x3ca40d5c	0.020025901
146	0x3b2435dd	0.002505652
147	0x3d3da799	0.04630241
148	0x3d22741e	0.03966152
149	0x3c9ce9f6	0.01915453
150	0x3ccfd2ae	0.025369015
151	0x3cbb18e1	0.022839012
152	0x3cb74925	0.022373745
153	0x3d83f9e7	0.064441495
154	0x3d4308bd	0.047615755
155	0x3d3a0f16	0.045424543
156	0x3cbef3d6	0.02330963
157	0x3d2cb5f0	0.042165697
158	0x3d49aff9	0.049240086
159	0x3ce205cd	0.027590657
160	0x3d410d96	0.047132097
161	0x3c81bd38	0.015837297
162	0x3d30e6ae	0.043188743
163	0xbc37751e	-0.0111973565
164	0x3d3a1fe2	0.045440562
165	0x3c0e9b30	0.008703992
166	0x3bf181df	0.007370218
167	0x3d2eb591	0.042653624
168	0x3d0c0c04	0.034191146
169	0x3ce41e57	0.027846498
170	0x3d1deccd	0.03855591
171	0x3c3e8f14	0.011630792
172	0x3d2faabe	0.04288744
173	0xbad4d7d8	-0.0016238643
174	0xbbeeccbb	-0.0072875894
175	0xbbbcd32e	-0.0057624793
176	0x3cc22cdf	0.023703037
177	0x3ce34660	0.027743518
178	0xbd3aba84	-0.04558803
179	0x3bb8ed8c	0.005643552
180	0x3cc6edfb	0.0242834
181	0x3d2db1ef	0.04240602
182	0xbc11a4f8	-0.008889429
183	0x3ca7a3ec	0.020463906
184	0xbd869b4a	-0.06572588
185	0x3cdb23fc	0.026750557
186	0x3ca33869	0.01992436
187	0x3d8b7f36	0.06811373
188	0x3d262c33	0.040569495
189	0x3c489f26	0.012244975
190	0x3c056cb9	0.008143597
191	0xbd1bfebe	-0.038084738
192	0x3bcfb28c	0.006338423
193	0x3ce8ad17	0.028402848
194	0x3c03f7e3	0.008054706
195	0x3d75c626	0.060003422
196	0x3d1c6c11	0.038188998
197	0xbc10f90c	-0.00884844
198	0x3daca941	0.0843072
199	0x3d27d040	0.040970087
200	0x3d2679d7	0.04064354
201	0x3d141df7	0.03616139
202	0x3d35bf2a	0.04437176
203	0xbafff617	-0.0019528297
204	0x3cb7f7f9	0.02245711
205	0x3d9d5dea	0.07683928
206	0xbbf3250e	-0.0074201887
207	0xbc1c309c	-0.009533074
208	0x3c9b3e4c	0.018950604
209	0x3d0aaa19	0.033853624
210	0x3cbd2221	0.023087563
211	0x3cbf9be5	0.023389766
212	0x3d32d373	0.043658685
213	0x3c72f229	0.014828243
214	0x3bc04a3b	0.005868224
215	0x3cdf312c	0.027245127
216	0x3d962b52	0.073324814
217	0x3d97e41c	0.07416555
218	0x3cf1933a	0.029489148
219	0x3d66bf7a	0.05633495
220	0x3d16ec15	0.03684624
221	0x3cfdbd8a	0.030974168
222	0x3ceb6df4	0.028738953
223	0x3cb86151	0.022507342
224	0x3d15a37b	0.03653286
225	0x3a442072	0.00074816414
226	0x3d9a6440	0.075386524
227	0x3d0dc49b	0.034611326
228	0x3d4fea54	0.050760582
229	0x3c4232f3	0.011852968
230	0x3cd9b2aa	0.026574451
231	0x3d2a9a6d	0.04165118
232	0x3d23a0f5	0.039948422
233	0x3d056764	0.032569304
234	0x3e2362cf	0.15955661
235	0x3d06f347	0.03294685
236	0x3c02e94a	0.007990191
237	0x3cd68267	0.026185228
238	0x3c05a680	0.0081573725
239	0x3d106ea7	0.035261776
240	0x3cf686ef	0.030093638
241	0x3d6c6dfc	0.057722077
242	0x3d29101c	0.04127513
243	0x3c9844ad	0.018587435
244	0x3d9de230	0.077091575
245	0x3c3f63a1	0.011681468
246	0x3d8a714b	0.0675989
247	0xbc166f78	-0.00918185
248	0x3dbd614b	0.09247073
249	0x3c08f0e6	0.008358216
250	0x3ceedfc5	0.029159436
251	0x3bfc82df	0.0077060307
252	0xbb23a9a1	-0.0024972933
253	0x3d1a8557	0.03772482
254	0x3d1d6628	0.038427502
255	0xbd268960	-0.040658355

fc1.bias f4 [32]
0	0x3d4c6195	0.04989775
1	0x3c8af39a	0.016961861
2	0x3d4fc704	0.050726905
3	0x3ec74964	0.3892318
4	0x3e6ae9d4	0.22940761
5	0x3e487e24	0.19579369
6	0x3d67728f	0.056505736
7	0x3e911c3c	0.28341854
8	0x3f0076cc	0.5018127
9	0x3e92edbf	0.2869701
10	0x3d88736f	0.06662642
11	0xbd4c416c	-0.04986708
12	0x3d53dc79	0.05172393
13	0xbc80d94a	-0.015728611
14	0x3d4c3388	0.04985383
15	0x3dc1908b	0.094513975
16	0x3de50217	0.11182039
17	0x3dcaf77a	0.09910484
18	0x3e0af522	0.13570073
19	0x3ea1f754	0.3163401
20	0x3d9aa0e1	0.075502165
21	0x3de190c6	0.110139415
22	0x3e443549	0.19160952
23	0xbce61aba	-0.028088916
24	0xbc2c319b	-0.010509874
25	0x3da92a4e	0.08260022
26	0x3dab6f0c	0.0837079
27	0x3e177b2b	0.14793079
28	0x3ea7802f	0.32714984
29	0x3d958023	0.07299831
30	0x3e41206c	0.18860024
31	0xbd2ab70a	-0.041678466

fc2.weight f4 [1, 32]
0	0xbe72da86	-0.23716173
1	0xbe8aeaf6	-0.27132386
2	0x3e8c4932	0.27399594
3	0x3e541334	0.2071045
4	0x3e6cd952	0.23129776
5	0x3eb3e0dc	0.35132492
6	0xbe4c7ed8	-0.19970262
7	0x3e7e5d60	0.24840307
8	0x3e746511	0.23866679
9	0x3e8dffd3	0.2773424
10	0xbe6e0e69	-0.23247685
11	0xbe1e1f08	-0.15441525
12	0xbe381a11	-0.17978694
13	0xbe95019b	-0.29102787
14	0xbea9f084	-0.3319131
15	0xbe18b990	-0.14914536
16	0x3e947e01	0.29002383
17	0xbe84cba1	-0.25936607
18	0x3eb30872	0.3496738
19	0x3e654bab	0.22392146
20	0xbe98ef51	-0.29870084
21	0xbe6f42b3	-0.23365287
22	0x3ec167a9	0.377744
23	0xbe5659df	-0.2093272
24	0xbe1c9f1e	-0.15295073
25	0xbe418dad	-0.18901701
26	0xbe982b21	-0.29720405
27	0x3ea46173	0.32105598
28	0x3e74be2d	0.23900671
29	0xbe77dba0	-0.24204874
30	0x3eaa8da4	0.33311188
31	0xbe4d23a3	-0.20033126
